hivisionai/hycv/mtcnn_onnx/weights/rnet.onnx (onnx, 402933 bytes, 16 tensors)

features.conv1.weight f4 [28, 3, 3, 3]
000000 c8 ce 00 bf 1d 95 9a 3c 65 e8 c2 3e 6e 59 d1 be
       -0.50315523 0.01886993 0.38067928 -0.40888542
000010 a5 45 4f 3d 8f a4 c5 3e e1 ab 95 be 3a cb 0a 3e
       0.050603528 0.3860211 -0.29232696 0.13554087
000020 d4 ab 9d 3e 07 56 cc be a4 47 55 bd 56 a2 74 3e
       0.30795157 -0.39909384 -0.052070275 0.23890051
000030 1b dd 97 be d1 2a b2 bc 21 62 87 3e a4 74 3c be
       -0.29660878 -0.021748932 0.26442054 -0.1840387
000040 b6 ec 59 3d 93 91 2f 3e a9 90 9b be 1a 28 d0 bc
       0.05320426 0.17145376 -0.30383804 -0.025409747
000050 fc 3f 5e 3e c9 34 4e be 52 64 a1 3b 07 c2 82 3e
       0.21704096 -0.20137323 0.004925289 0.25538656
000060 03 14 ce bd 0d a4 cb 3d 51 bd 2e 3e b6 28 71 bd
       -0.10062411 0.099433996 0.17064406 -0.058876716
000070 16 8e d0 3e f7 aa e6 3e ad 2f d3 be 2d 35 f2 be
       0.40733403 0.4505231 -0.4124731 -0.47306195
000080 1d 15 a2 3e 5d 0d 3a 3e 0e 43 a8 be 0c e6 02 be
       0.31656733 0.1816916 -0.3286366 -0.12783068
000090 f5 b3 1b be b1 e4 66 3e 27 af 06 3e 77 55 6e be
       -0.15205367 0.22548176 0.13152753 -0.2327479
0000a0 82 db d0 be 08 94 22 3e 0b c7 d2 3e 4e 52 e0 bd
       -0.4079247 0.15876782 0.41167483 -0.109531984
0000b0 3a 1a 8a bd 7e da db bd 6e 23 52 3e 62 b7 8a 3c
       -0.067432836 -0.107350335 0.20521328 0.016933147
0000c0 a8 58 f0 bd 93 1e c1 be ba f3 03 3d 9a ca 05 3f
       -0.1173566 -0.3771864 0.032214858 0.5226227
0000d0 8a 67 68 bd 0e 43 27 be 56 da b7 be e0 3c de be
       -0.056739368 -0.16334173 -0.35908765 -0.4340582
0000e0 b2 21 b6 be 0d d7 77 bd bb d1 f8 bc 51 15 05 bc
       -0.35572582 -0.060507823 -0.030373445 -0.008122758
0000f0 18 98 8d 3e 17 1c cd 3e 64 61 7d 3e 9a cf 95 be
       0.276551 0.40060493 0.24744183 -0.2925995
000100 7e c2 9c be 37 93 6f be 0f f7 17 3a ef 80 af 3d
       -0.30617136 -0.23396002 0.00057970075 0.08569514
000110 0f 48 83 3d 01 94 7f 3e c5 61 c8 3e 30 6a 54 3e
       0.064102285 0.24958803 0.39137092 0.20743632
000120 59 b2 80 be 20 dc 84 be 3f 0a 2d be f2 ee 34 bc
       -0.25136068 -0.25949192 -0.1689844 -0.011043297
000130 4a b0 95 3d b8 d8 88 3d e5 0a 36 3e e5 f6 a2 3e
       0.07309015 0.06681961 0.17777593 0.3182899
000140 4d 5e 28 3e 3b 30 c3 3e e8 e4 a3 be 3a 08 13 3d
       0.16442223 0.38122734 -0.3201058 0.035896517
000150 74 99 23 3e 91 35 24 bf 60 d3 97 3e d8 80 30 bd
       0.15976506 -0.64144236 0.29653454 -0.043091625
000160 2c 33 da bd 36 e1 6d 3e c1 8a af 3e 59 73 ab be
       -0.106542915 0.23230442 0.34285548 -0.3348644
000170 ce 00 39 bc 86 b1 38 3e e4 d3 11 bf a8 99 93 3e
       -0.011291696 0.1803647 -0.56963944 0.28828168
000180 88 a7 b8 3b 14 50 94 bd 35 a9 35 3e 0e e3 97 3e
       0.0056352057 -0.07241836 0.17740329 0.29665416
000190 4d 28 99 be 8f 22 b2 bb f3 22 fc 3d be 50 03 bf
       -0.2991356 -0.0054362486 0.123113535 -0.5129508
0001a0 3e 37 a2 3e b9 b8 51 bd ee 04 46 bd 80 4e 4e 3e
       0.3168277 -0.051201556 -0.048344545 0.20147133
0001b0 1d b8 33 bd dd e5 8d bd 09 fe 0e be 98 0c 93 bd
       -0.043876756 -0.069286086 -0.13964094 -0.071801364
0001c0 4d 21 09 3d 02 83 8e bd d6 11 d6 bc 8c 91 71 bd
       0.033479024 -0.069585815 -0.026131552 -0.058976695
0001d0 41 8f 2e bd d0 c0 96 3e 27 68 8c 3e 72 db 81 3e
       -0.042617086 0.2944398 0.27423212 0.25362736
0001e0 fa bb 65 3e e0 eb 9b 3e 08 87 81 3e d5 2f 88 3e
       0.22434989 0.30453396 0.25298333 0.26598993
0001f0 01 e3 62 3e 87 27 8d 3e 6c ab 3b be 7d 5a 5c be
       0.22156908 0.2756922 -0.18327111 -0.21518894
000200 84 f0 0f be 3f b6 7f be aa 19 50 be ba ae 41 be
       -0.14056593 -0.24971865 -0.2032229 -0.18914309
000210 69 b9 30 be 3d 54 79 be 86 6d 2d be 66 8b af bd
       -0.17258228 -0.2434854 -0.16936311 -0.0857151
000220 8e 4c 38 be 54 63 bb bd 74 87 d1 3e cb f1 f5 3e
       -0.17997953 -0.09149805 0.40923655 0.48036036
000230 3f a6 94 3e 2a 9f 96 be 1e 0a af be d1 cd 26 be
       0.29033086 -0.29418308 -0.34187406 -0.1628945
000240 c5 1f 1a be b1 92 81 be 3f e5 0b be 86 67 c0 3e
       -0.15051182 -0.2530723 -0.13661669 0.37578982
000250 a6 5b e8 3e 0f fd 91 3e f2 1a 85 be 15 32 92 be
       0.45382422 0.2851338 -0.2599712 -0.28553835
000260 4b cb d0 bd a3 c4 de bd 95 b1 49 be c5 31 14 be
       -0.10195025 -0.10877349 -0.19696648 -0.1447211
000270 8d 07 b7 3e b1 c8 e4 3e 66 e3 74 3e 35 da 52 be
       0.35747948 0.44684365 0.2391487 -0.20591052
000280 d5 20 6a be 7b f0 f5 bd 24 c0 d7 3d 67 d9 12 be
       -0.22864087 -0.12008759 0.10534695 -0.14340745
000290 ae 8c f3 be dc 83 66 3e 6f 69 8f 3d 66 a1 fc bb
       -0.47568268 0.22511238 0.07002532 -0.00770967
0002a0 02 e2 bd 3e 63 11 71 3e b6 2c 23 3e 47 aa 30 bd
       0.37086493 0.23541789 0.15935025 -0.04313114
0002b0 9d f9 88 bb d2 13 9e bd 0a 9a ca bd 93 cf 97 bd
       -0.004180147 -0.07718624 -0.09892662 -0.074126385
0002c0 4e e8 8d 3d 9c e5 9f bd c4 13 b2 bd 4c a1 ec ba
       0.06929074 -0.078074664 -0.08695176 -0.0018053441
0002d0 08 d2 0c 3c a4 44 18 3e 64 fa 0b 3e 2c b4 e9 bd
       0.008594997 0.14869934 0.13669735 -0.11411318
0002e0 f2 24 eb bc 6e da 1f 3e e1 c8 31 be 7e b0 2f be
       -0.02870414 0.15610668 -0.17361785 -0.1715717
0002f0 2b 91 4f bd 51 51 86 be 7e fe 10 3e 04 4f d6 3e
       -0.050675552 -0.26233914 0.14159581 0.4185716
000300 69 50 c7 be 27 d7 88 bb fe 57 5c 3e fb 7d b9 be
       -0.38928536 -0.004176039 0.21517941 -0.36228928
000310 93 23 00 be 3b 51 a5 3d 5b cd 67 be 9e b5 3f 3e
       -0.1251357 0.08072134 -0.2263693 0.18721625
000320 43 06 d8 3e 10 74 9f be 58 98 a8 3d ff fb 72 3e
       0.42192277 -0.31143236 0.08232182 0.23728941
000330 9c b9 9e be 69 db 7b bd d7 99 a5 3d f8 75 11 be
       -0.31000984 -0.061488543 0.08085983 -0.14205158
000340 0b 27 49 3e b4 24 a9 3e d5 6a 68 be e1 6f c3 3d
       0.196438 0.33035815 -0.22697003 0.095428236
000350 11 bd 17 3e d5 0a 7e be ed 52 84 bd 5f 0e 7b 3b
       0.14818217 -0.2480882 -0.06461129 0.0038308126
000360 2b 0e 84 3e 6b 41 a9 3e 35 69 3b bd 39 f9 ba 3e
       0.2579206 0.33057722 -0.04575463 0.36518267
000370 e4 aa 03 3d d2 48 a3 be 79 42 3a 3d ac 81 a2 be
       0.032145396 -0.31891495 0.04547355 -0.31739557
000380 b1 ff 86 be f5 40 6e 3e 14 32 7d 3e cf bf 2f be
       -0.26366952 0.23266967 0.24726135 -0.17163013
000390 0c 3d bb 3e b5 cc cd bc 8b c6 c3 be eb 28 c8 3d
       0.36570013 -0.025122026 -0.38237414 0.097734295
0003a0 42 3e 92 be 86 50 45 be ff 05 85 3e f1 9d 95 3e
       -0.28563124 -0.19268999 0.25981137 0.29222062
0003b0 29 f5 d7 bd ca cc 97 3e 1e 6c 0c bd e6 fd 9f be
       -0.105448075 0.2964843 -0.034282796 -0.31248397
0003c0 de 1a 4a bd 33 f5 9f be ce 2f ce bd be 2e a2 be
       -0.04934203 -0.3124176 -0.10067712 -0.31676286
0003d0 5f 9b 91 be 12 0b b1 be bf b1 60 be 70 af a7 be
       -0.2843885 -0.34578758 -0.21942805 -0.32751036
0003e0 0e 88 c5 be 0c 21 aa be 66 11 b3 be 1c dd a2 be
       -0.38580364 -0.33228338 -0.3497421 -0.31809318
0003f0 57 c0 5f 3e 79 ac 90 3e b0 59 77 3e 3f b1 6f 3e
       0.21850716 0.28256586 0.24155307 0.23407458

features.conv1.bias f4 [28]
000000 60 c6 b4 be 43 b4 68 3d e5 70 bd be 49 52 31 3c
       -0.35307598 0.056812536 -0.37000194 0.010822841
000010 ff f7 9c 3d f3 ad d6 bb f5 1c 01 bd 27 0b 7a be
       0.07664489 -0.006551498 -0.031521756 -0.24418317
000020 c3 78 36 3a 0a 72 fb 3e 15 6e 16 3c 2b 49 d3 3e
       0.0006960744 0.49110442 0.009181519 0.4126676
000030 d4 38 a1 be af de a4 bd 81 69 dd 3c 30 3c dc 3d
       -0.3148867 -0.08050286 0.027027847 0.10753667
000040 f6 c6 da be 0f 95 da 3d ca 2c d6 3e b9 cf 96 3d
       -0.4272992 0.10672962 0.41831046 0.07363839
000050 c0 69 03 ba f8 af 0d 3e 8a aa 96 3c 3d 92 04 3e
       -0.00050130114 0.13836658 0.018391866 0.1294641
000060 2d 14 9f 3b 7c 22 8d bd 73 3a 11 bf d2 c8 95 be
       0.0048547 -0.06891343 -0.5672981 -0.29254776

features.conv2.weight f4 [48, 28, 3, 3]
000000 9a 88 69 3d 1d 95 a5 bd cc df d2 bd 6d 57 6d bd
       0.05701504 -0.08085082 -0.10296592 -0.057944704
000010 d4 6c 90 bc 79 31 c0 bc 8b 51 22 3c 65 4d ef bb
       -0.017630018 -0.02346109 0.009907137 -0.0073029273
000020 d2 f7 fa bc ee d8 01 be 2d 64 41 be de 15 62 bd
       -0.030635748 -0.12680408 -0.1888587 -0.055196635
000030 98 cc a3 3d 8f f5 ca bc b7 86 2e bd ed 4f 7d 3d
       0.079980075 -0.024775295 -0.042608943 0.0618438
000040 14 d9 ec 3c 75 e9 23 3d e7 5c 85 be 66 7a 7a be
       0.028912105 0.040017564 -0.2604744 -0.24460754
000050 28 16 83 be 89 2c 9c bb 9e 36 79 bd 27 76 ea 3b
       -0.2560284 -0.004766051 -0.060843103 0.007155198
000060 60 42 50 3d 5e 38 79 bd 9b f7 69 3c 71 b0 91 3d
       0.05084455 -0.06084477 0.014280225 0.07113732
000070 fc 07 06 bd 58 c4 03 be 7e 25 0a 3c eb 79 0e bc
       -0.03272246 -0.12867868 0.00843179 -0.00869606
000080 c6 03 2d 3d 86 d2 bb 3c 1a 68 6c 3b 99 8b 29 3d
       0.042239927 0.022927534 0.0036072792 0.041392896
000090 f6 cf f7 3c 1c 63 ab 3c 24 61 b3 3c 87 76 28 3b
       0.03025053 0.020921282 0.021896906 0.0025705413
0000a0 2d de 2e bc f0 20 ac bb 9a 4e 1c 3c 74 ca 97 bc
       -0.010673088 -0.00525295 0.009540224 -0.018529154
0000b0 6c 0c 9c bc 3b d5 aa bd 78 57 04 be 37 e5 d4 bd
       -0.019048892 -0.08341452 -0.12923992 -0.10395282
0000c0 04 f7 4c 3a 74 a6 c5 bc 90 74 cb bc d8 79 08 3d
       0.00078187906 -0.024127223 -0.024835855 0.033319324
0000d0 d0 85 35 3d 87 c3 d8 3c 62 ff 31 bd b9 ec 27 bb
       0.044317067 0.026460422 -0.043456443 -0.0025623275
0000e0 8d ec da 3c 63 0a c7 3b c3 1b 0e 3d 00 34 f9 3c
       0.026724124 0.0060742362 0.034694444 0.030420303
0000f0 34 4b a5 bc c5 b0 fb bb 2d 7c fe ba 82 a1 62 3b
       -0.020177461 -0.0076809847 -0.0019415669 0.003458113
000100 9a 4c 23 3d c7 5d 08 3e 30 bd b9 3d 99 54 85 3d
       0.039867975 0.13317023 0.09069288 0.06510276
000110 b4 cd 91 3d e9 7f 68 bc 96 b9 93 3c 53 de 26 3d
       0.07119313 -0.014190652 0.01803283 0.04073937
000120 67 c0 c6 bd 79 b6 18 be ad b7 16 be 37 d4 76 bd
       -0.097046666 -0.14913358 -0.14718504 -0.060260978
000130 80 d9 a1 bd 79 16 74 bd 91 08 85 bb cc e5 52 ba
       -0.07902813 -0.059591744 -0.004059859 -0.00080451067
000140 06 aa 02 3d 71 10 c3 bc 49 41 58 bd 77 a9 58 bc
       0.03190043 -0.02381155 -0.052796636 -0.013223997
000150 8f 13 8b 3b 38 a4 3c 3b e0 67 06 bc 8c c2 56 3c
       0.004244275 0.0028784405 -0.008203477 0.013107907
000160 cb 9f 79 3b 2b 89 2e 3c 05 3e 0a be f0 0d 80 bd
       0.0038089629 0.010652821 -0.13500221 -0.06252658
000170 d9 d6 93 3d 45 81 c7 bc ac 2f e0 bd 12 64 61 bc
       0.07218713 -0.024353633 -0.10946593 -0.013756769
000180 48 2c 25 3d 74 38 1e bd 65 06 f6 ba f2 8f 1b 3c
       0.040325433 -0.038628057 -0.0018770216 0.009494768
000190 25 34 5b bd ce a9 38 bc f8 12 12 bc 10 fa 6d bd
       -0.053516526 -0.011270953 -0.008915655 -0.058099806
0001a0 84 f5 3a bd 6a 00 27 3d f5 72 0b bd 5e db cd bc
       -0.0456443 0.04077188 -0.03404518 -0.025129016
0001b0 33 d7 22 bd a9 83 15 bd c1 3d ef bc ab 18 07 3b
       -0.03975601 -0.036502514 -0.029204251 0.0020614068
0001c0 22 9a 8f 3c f9 f7 ae 3c 31 68 77 3c dd f4 17 3c
       0.017529551 0.021358477 0.015100525 0.009274689
0001d0 97 21 0a 3c c3 00 17 bb 3c 01 ba ba 4f 6a 9e bc
       0.00843086 -0.0023041226 -0.0014191042 -0.019337801
0001e0 ff da 6c 3b e5 02 94 bc a4 a7 f9 bb df 59 cd bb
       0.0036141274 -0.018067786 -0.0076188613 -0.006266817
0001f0 9f 88 8d bc d7 05 84 3c c8 37 8f bd 19 cb 13 be
       -0.01727706 0.016116066 -0.06993061 -0.14432944
000200 9b 97 1a be 3f c8 e5 bc ea 64 35 bd 18 66 c0 bb
       -0.15096895 -0.028049586 -0.044285692 -0.0058715455
000210 5a b8 fe 3b 6f 0c e3 3c 22 f2 7e 3d d7 f4 82 3d
       0.0077734413 0.02771589 0.062242635 0.06394356
000220 28 74 f7 bc 78 28 9f bc 7d e5 19 3d 3a a2 f1 b9
       -0.030206755 -0.019428477 0.037572373 -0.0004608797
000230 2f 4b 24 bd 4a 03 37 3c 0c fe 97 3c da 12 e1 bc
       -0.040110763 0.011170218 0.018553756 -0.02747481
000240 cf e7 dc 3d 94 5d 12 3e dd 14 45 3e 99 1f 82 bd
       0.107864015 0.1429351 0.1924624 -0.06353683
000250 b9 30 05 be 66 d5 16 bd 01 25 0c 3c 57 31 89 bb
       -0.13006867 -0.036824606 0.008553744 -0.00418679
000260 38 c0 88 bb bf 31 86 3e 82 ff 66 3e 83 2e 6f 3e
       -0.004173305 0.26209828 0.22558406 0.23357587
000270 e6 ca d8 3b ae 06 14 bd a5 6a a6 bd ad d2 90 bc
       0.0066159843 -0.036139183 -0.081258096 -0.017678583
000280 8e 3f 4b bc d0 1f 0f bd 1f d5 0b 3c 15 36 b6 ba
       -0.012405289 -0.03494245 0.008534699 -0.0013901616
000290 3b 2b 28 3d 74 f7 1f bc 2a 77 9e bc b8 ba 11 3b
       0.041056853 -0.009763587 -0.019343931 0.0022236537
0002a0 a8 f4 c8 3c 13 21 63 bb e5 54 a1 3c d5 c5 2e be
       0.024530724 -0.0034657165 0.019693801 -0.17067654
0002b0 eb c1 22 be 66 53 40 be 0e be 06 bc f0 85 ef 3c
       -0.15894286 -0.18781814 -0.0082240235 0.029238671
0002c0 87 00 dc 3c 8c fc a9 bc f8 a2 a3 bc c4 95 09 3c
       0.02685572 -0.020750307 -0.01997517 0.008397523
0002d0 08 56 2b bd 65 0b 8b bc 19 e1 ec bd 41 94 70 bd
       -0.041830093 -0.016973207 -0.115663715 -0.058735136
0002e0 d1 ac 7c bd dc f7 c9 bd 3b 94 14 bd e9 c9 d1 bc
       -0.061688248 -0.098617285 -0.036274176 -0.025608974
0002f0 8f f8 50 bd 65 34 17 be 7a 8d d3 bd cc 91 60 3d
       -0.051018294 -0.1476608 -0.10329719 0.054826543
000300 2a 73 9d 3c 66 32 90 3a 73 be 74 3d b2 c2 36 bb
       0.019219954 0.0011001348 0.05975194 -0.0027887044
000310 b7 db 51 bc 97 cf 0e 3d 6f 7c 20 3c fe da 6d bb
       -0.012808732 0.03486594 0.009795292 -0.003629386
000320 23 04 32 bc a4 9c d2 3c 11 c6 05 3c c0 d1 28 3d
       -0.010865244 0.025709458 0.0081648985 0.04121566
000330 ae e0 68 bb 8f 46 66 3c 45 59 a9 bc f7 64 75 bd
       -0.003553431 0.014054908 -0.02067245 -0.05991074
000340 ad 18 9d bc 5c e3 de 3c 60 62 28 3d 98 ea 38 bd
       -0.019176805 0.027208023 0.041109443 -0.0451456
000350 7b b2 88 3c 1b 6d 02 3d 1b 45 94 bc e1 10 0f 3c
       0.016686669 0.031842332 -0.018099358 0.008732052
000360 77 d3 c1 3c ec c8 35 bc a8 df f6 3c e7 33 f2 3a
       0.023660405 -0.011095267 0.030135944 0.0018478603
000370 83 47 b6 bc bf e2 cd bc 27 b0 46 3c 61 6b 71 bb
       -0.022250896 -0.025132535 0.012126959 -0.0036837684
000380 43 1a fc 3c ae 29 4e 3d 1e 1f bd bd 77 d1 9f bd
       0.030774241 0.050332718 -0.09234451 -0.07803624
000390 08 ee b3 3b 55 f7 df bb 4f 63 54 3d 09 ec 2d 3c
       0.005491022 -0.006834904 0.05185252 0.010615357
0003a0 37 25 d1 bc 2a 7a 4b 3c b3 6c a3 3d c0 bc c9 3d
       -0.02553044 0.012419263 0.07979717 0.09850454
0003b0 fd 21 b2 3d 9d 45 95 bc 61 53 d8 3c 75 dd e5 3b
       0.08697889 -0.01822167 0.026406946 0.007014925
0003c0 cb 9e 3e bc ee 80 b1 3a 44 18 b6 3b 33 96 06 3e
       -0.011634539 0.0013542452 0.005557092 0.13143234
0003d0 a2 d7 a6 3d 62 47 02 3d cd db 84 3d 4c ef 9d 3d
       0.081465974 0.031806357 0.06487236 0.07711658
0003e0 81 47 a7 3d 36 22 39 3d 21 72 a5 3c 31 bb 11 3c
       0.08167935 0.04519864 0.020196022 0.008894728
0003f0 e3 25 17 bd af 0b 8a bd 13 67 4c bd c1 95 10 3d
       -0.036901366 -0.0674051 -0.049902987 0.035299066

features.conv2.bias f4 [48]
000000 66 92 c0 3d 62 92 a7 3e c6 b9 30 3e 03 45 ee 3c
       0.09402923 0.3272887 0.17258367 0.029085642
000010 5f b4 90 3e f8 3c a7 3d 2f da cf 3d 7f a5 98 3c
       0.28262612 0.08165926 0.10149037 0.018633602
000020 49 84 99 bd 4b c9 ab 3d c7 be 9f bd 12 04 9c bc
       -0.074959345 0.08388003 -0.0780006 -0.01904491
000030 b1 a6 46 be 82 6c e9 3d 6c bd 23 3e 54 17 dc bd
       -0.19399525 0.11397649 0.15990227 -0.10746637
000040 0b 63 11 3e 5f d0 8f 3e 06 82 57 3e 15 b9 ec 3d
       0.14197938 0.28088662 0.21045694 0.11558739
000050 47 09 51 3e 67 ba cb bb c6 4c a0 3d 48 88 ac 3d
       0.20413695 -0.0062172893 0.07827143 0.08424431
000060 d2 c5 f0 3d aa 89 0b 3e 0d a9 86 3d ee 23 1b bc
       0.11756481 0.13626733 0.06575213 -0.0094690155
000070 b5 ed 57 3e 00 92 a6 be 7b 6b 19 3e e8 3c 7e bd
       0.21086772 -0.32533264 0.14982407 -0.062069803
000080 94 6a 0f be d1 09 2d 3e 26 5f 16 3e 25 4e 18 3e
       -0.140055 0.16898276 0.14684734 0.1487356
000090 3a 2c 0d 3e 35 a1 65 3e 5b a1 09 be bb db 2d 3e
       0.13786402 0.22424777 -0.13440458 0.16978352
0000a0 03 93 a8 3e d4 12 e7 3c 1f 20 03 3e bb f3 2d bd
       0.3292466 0.02820722 0.12805222 -0.042468768
0000b0 e0 dd d1 3d 5b 59 ef bd 96 0a 07 be 02 70 3c be
       0.102473974 -0.11686965 -0.13187632 -0.18402103

features.conv3.weight f4 [64, 48, 2, 2]
000000 50 77 fb 3b 42 8d c0 3c 94 56 42 3c 3a ee 04 bd
       0.0076741353 0.023504857 0.011861462 -0.032453753
000010 be 86 dc 3d 81 77 a6 3d 81 5c 86 3d 61 2b 1d 3d
       0.107678875 0.08128262 0.065606125 0.038371447
000020 83 a8 7b 3d 80 0a 98 3d 1c 54 06 bd 8b 24 a4 bb
       0.061440002 0.07423878 -0.032795057 -0.005009239
000030 c6 90 12 bd 3a 3d da 3c a1 4d 66 bd 9b d1 23 3e
       -0.035782598 0.026640523 -0.056226376 0.15997927
000040 10 73 2a bd 12 77 a3 bd 6d bd 0b bc 16 cd 92 bd
       -0.04161364 -0.07981695 -0.008529049 -0.07168023
000050 7b d2 31 bd 96 70 b8 bd fc 16 a5 bd e0 6a c6 3b
       -0.04341362 -0.09005849 -0.080610245 0.006055221
000060 b5 4b 5e 3d 58 ad 1e 3d 37 4a 07 3e 02 fb 34 bd
       0.05427142 0.038739532 0.13211904 -0.044184692
000070 a1 60 34 bb 4b 7a 2e 3d fd f7 a8 bd 2b bd 12 3c
       -0.0027523416 0.042597096 -0.08250425 0.008956234
000080 ce 52 ae 3c b5 23 92 bc b2 1c f1 3c ec e6 c1 bd
       0.021279719 -0.017839292 0.029432628 -0.09467873
000090 f4 d7 a6 3c 8d 69 27 bd 2d bf 1d bd 1a a5 39 bd
       0.020366646 -0.040872145 -0.038512398 -0.04532347
0000a0 fd f9 e1 3c 52 73 72 3c 3a 94 09 bd cc fc 23 bb
       0.027585024 0.014798002 -0.033588625 -0.0025022505
0000b0 d6 b9 42 bd 01 2c 52 bd d0 86 67 bd 1f 17 80 3c
       -0.04754051 -0.051311497 -0.05652505 0.015636025
0000c0 ce 02 82 3c 20 03 b1 3c 7d c0 ee bc 26 9e c1 bd
       0.015870478 0.021607935 -0.02914452 -0.094539925
0000d0 3c c5 83 bd 89 10 0b 3b 54 31 94 3d 10 ac f0 3c
       -0.06434104 0.0021219573 0.07235971 0.02937892
0000e0 e8 f5 f9 bd e2 bc 63 bd 28 4c 2a 3c 9d 85 57 bd
       -0.12205106 -0.055600055 0.010394134 -0.052617658
0000f0 bd f0 c7 3c 2b 2f c9 ba 65 45 50 bd 3f 99 7e 3c
       0.024406785 -0.001534914 -0.05084743 0.015539466
000100 23 16 b1 3d 9f 5d 61 3d 8b 14 c3 3c 38 33 10 3d
       0.086468 0.055020925 0.023813507 0.035205096
000110 ef fd ca bd 07 49 90 bd e0 b8 a9 3d 0a 42 2a 3d
       -0.09911715 -0.07045179 0.08287215 0.041566886
000120 20 79 66 bc 3d cf 3a bd 43 bc eb 3c ed 24 cc 3c
       -0.014066964 -0.045607794 0.028776294 0.024919951
000130 78 58 a1 bd 43 c8 7b 3c ec 40 2e bd 49 42 88 bc
       -0.07878202 0.01536757 -0.042542383 -0.01663317
000140 f8 36 aa bd 22 1c 20 bd be 61 0f 3d a6 02 d8 3c
       -0.08311266 -0.03908933 0.035005324 0.02636845
000150 45 af ed bb 85 f6 8b 3c 0e 79 ad 3c 3c bd 4e bd
       -0.00725356 0.017085323 0.021175887 -0.050473437
000160 59 5d 28 bd f6 a3 21 be ce 24 ec bd eb a5 6b bc
       -0.04110465 -0.15785202 -0.115304574 -0.01438282
000170 d0 2c e7 3b 22 b5 c4 3b a2 96 48 3d e1 44 0e 3c
       0.0070549026 0.006003038 0.04897178 0.008683414
000180 aa cf ff bc 21 df 0a bb e3 71 4f bd d0 db 94 bd
       -0.031226952 -0.0021190124 -0.05064572 -0.072684884
000190 e4 7d ac 3d 84 98 e0 3c 05 62 b5 3b 97 b4 7a 3c
       0.08422449 0.027416475 0.0055353665 0.015301845
0001a0 f9 d1 01 3e 27 c3 66 bc e5 0d ac 3d 77 e5 cc 3c
       0.12677754 -0.014084614 0.08401088 0.025011761
0001b0 a6 dd 2a bd a9 ee 01 3d 3c 56 36 bd 5d 72 88 bb
       -0.041715287 0.031721745 -0.044515833 -0.004164024
0001c0 69 cc 31 3c 83 2a 0d 3d f2 9f 30 3e 89 a9 04 3e
       0.010851958 0.03446437 0.17248514 0.12955298
0001d0 c8 be a8 3d 20 2f 39 3d e2 2a 5b bd ba f0 9d 3b
       0.08239514 0.045210958 -0.053507693 0.0048199566
0001e0 e8 69 96 bc c3 3a f6 3d 2e 45 c6 3d 84 60 c9 bc
       -0.018361047 0.12022927 0.09681164 -0.024582155
0001f0 0d 8f ad 3d ea f0 eb 3d 15 19 5c 3c e2 de 1d 3d
       0.084745504 0.1152056 0.013433714 0.038542636
000200 66 db df 3c d4 4f f6 3c 59 2e 39 bd e2 85 ab bd
       0.027326297 0.030067362 -0.045210216 -0.083751455
000210 22 b9 24 3d 1e 06 f5 3d b2 18 39 bc 17 2c 06 bd
       0.04021562 0.119640574 -0.011297392 -0.03275689
000220 5f 65 33 bd 56 1b 6e bd 81 89 e9 bc ab 16 29 bd
       -0.043797847 -0.05813154 -0.02850795 -0.041281383
000230 fd 79 bb bd f5 c2 d6 3c 08 54 97 ba a0 fa 93 3c
       -0.09154127 0.02621601 -0.0011545429 0.018063843
000240 5b 6b a4 3c 36 98 fb 3c 3a c4 bc 3b b9 e0 71 bc
       0.020070722 0.030712228 0.0057606967 -0.014763051
000250 95 34 8a bd 46 06 82 bd d5 ca 08 bd 29 ce 93 bd
       -0.067483105 -0.06348853 -0.03339656 -0.07217056
000260 d0 a9 97 3d f4 c8 e9 3c 42 ee 59 bc ce 10 96 bc
       0.07405436 0.028538205 -0.013301434 -0.01831856
000270 ca e4 39 bc fe de 06 be 71 5a 7e 3d 87 9d 04 be
       -0.0113460515 -0.13171002 0.06209797 -0.12950717
000280 f2 bb 97 3d 08 17 e9 3c 36 f0 9e 3d 96 71 57 3c
       0.074088946 0.028453365 0.0776066 0.01314964
000290 06 87 98 bc 08 cc 88 3d 21 af 4f 3c ce 84 20 bd
       -0.018619072 0.06679541 0.012676031 -0.039189152
0002a0 4a 02 b1 bd b6 37 d1 bd 92 a8 71 3d 7b d1 75 bc
       -0.08643015 -0.10215704 0.05899865 -0.015003557
0002b0 82 9d 9c bb a5 6c 28 bd 49 77 31 bc f1 86 8b bd
       -0.0047795186 -0.041119236 -0.010831662 -0.068128474
0002c0 33 44 de 3c 9a b2 37 bd 5c 0f f8 bc 22 62 67 3d
       0.02713213 -0.044848062 -0.030280761 0.05649007
0002d0 f8 f7 1e bd 8f 2b 57 bc c1 91 59 bb 85 02 d9 bc
       -0.0388107 -0.013132944 -0.0033198448 -0.02649046
0002e0 4c 6d 3e 3d a9 0b 11 3d 8d 18 1b bd 2d d3 f8 bc
       0.046490952 0.03541151 -0.03786521 -0.030374134
0002f0 b9 31 df bb 11 b6 f2 bc de 95 b2 bc 22 e7 e8 bc
       -0.0068113473 -0.029627832 -0.021799978 -0.028430525
000300 8b 55 16 bc 1f 0b 4a bc cf 23 24 3c 5b 81 8e bc
       -0.0091756685 -0.012331753 0.010018303 -0.017395666
000310 1d 3c 0c bd 5d 10 3b 3e 28 00 89 bd fd a9 c2 b9
       -0.034237016 0.18267961 -0.06689483 -0.00037129215
000320 69 a9 8e 3d 67 0a de bd ea dc b3 3d 5c 9c f3 bd
       0.06965906 -0.10841828 0.087823704 -0.118950576
000330 76 99 81 ba bb 21 de bc 18 a2 c6 bd 12 9d 3d bd
       -0.0009887654 -0.027115693 -0.09698886 -0.046292372
000340 cf c0 c6 3b 3d 8c c5 bd a6 19 5c 3d fd 5f 3c bd
       0.006065465 -0.09645889 0.053735398 -0.04598998
000350 35 8c c2 3d 9f 72 6a bc 73 e5 20 bd 35 8a da bd
       0.094993986 -0.014309554 -0.03928132 -0.10670892
000360 d1 96 35 3d 24 06 95 bd db 6c 85 3d 43 5a 9a bd
       0.044333283 -0.07276562 0.06514903 -0.07536747
000370 c6 9c ce 3c cf 40 2a bd c0 6c c6 3c ce d1 74 3d
       0.02522124 -0.041565713 0.024221778 0.059770398
000380 06 53 27 3d e5 37 be bc 00 f4 0b 3d 0c 4b a7 bd
       0.04085066 -0.023220012 0.034168243 -0.08168611
000390 4c 35 85 3d f4 e9 a9 3c 84 db 57 3d f8 b6 f9 bc
       0.06504306 0.02074144 0.05269958 -0.030482754
0003a0 ad 95 3a 3d ea 48 9d 3d e5 b3 2a bd ce f0 c8 bc
       0.0455529 0.07679923 -0.041675467 -0.024528887
0003b0 28 b5 08 3d 7f 9e 83 bd cb 12 3d 3d f5 c5 94 bd
       0.03337589 -0.06426715 0.0461605 -0.0726432
0003c0 8c 94 2b bc e6 7a 87 bd 77 d4 eb bd 6b 0d 34 be
       -0.010472428 -0.06615238 -0.11515134 -0.17583244
0003d0 65 e6 e7 ba a9 60 48 3d 91 96 71 bb 76 28 78 3e
       -0.0017692564 0.048920307 -0.0036863426 0.24234185
0003e0 7a a7 5c 3c 32 e6 f6 bc b9 1a 2f bb 79 68 59 3d
       0.013467664 -0.030139063 -0.0026718809 0.05307815
0003f0 57 b6 18 3d 9e 0f 8c bc f7 49 7c 3a 49 12 80 bb
       0.037283268 -0.01709729 0.0009624059 -0.0039084298

features.conv3.bias f4 [64]
000000 8a 87 36 bd 85 74 50 3d f9 ba 17 3d 85 9a b6 3c
       -0.044562854 0.05089237 0.037043545 0.022290478
000010 e2 3f ad 3c 81 cb 97 3d da 47 3c 3d 84 14 38 3e
       0.021148626 0.07411862 0.04596696 0.17976576
000020 01 62 f3 3d b8 df 80 3e 55 26 41 3d 6e 5d a5 3e
       0.11883927 0.25170684 0.047155697 0.32297844
000030 5f 5d 0b be 47 74 fd 3d 2c 1a ee 3c 27 6d b3 3d
       -0.13609837 0.12375694 0.029065214 0.087610535
000040 4c 34 0a 3e 20 0e f7 3d 49 f9 33 bd a1 0d 7c 3e
       0.13496512 0.12063241 -0.04393891 0.24614574
000050 69 01 37 3e b9 3c 81 3a 22 10 ca 3d eb eb 54 3e
       0.17871632 0.0009860016 0.09866358 0.2079312
000060 e2 1c 64 3d 6a 2c 10 3e 49 fd 11 bc be a9 79 3e
       0.055691607 0.14079443 -0.008910486 0.24381158
000070 8e 2e 58 3d 71 05 7c bd 73 c6 72 3e 94 42 05 3e
       0.052778773 -0.061528627 0.23708515 0.13013679
000080 06 24 02 be 15 57 1b 3e 66 e3 ac 3c 12 78 04 bd
       -0.12709054 0.15169938 0.021104526 -0.03234107
000090 7e cd a5 3d a2 fc 9a 3d b1 eb 36 3e 7e d2 9c 3e
       0.08095835 0.07567717 0.17863347 0.30629343
0000a0 2b 18 55 3d 8e cb a3 3d de a7 79 3c ab 50 0b 3e
       0.052025 0.07997809 0.015237777 0.13604991
0000b0 2e 28 ed 3d 14 b4 90 3d ec 2a 5d 3e 92 e1 55 3d
       0.11579929 0.07065597 0.21598405 0.052217074
0000c0 f0 f9 b8 3d 21 92 9d 3e 75 a1 81 3e 64 59 15 bd
       0.09032047 0.3077555 0.25318494 -0.036462203
0000d0 48 8d 87 3e 61 eb d0 3d f7 7f 00 3e 02 a8 5d 3e
       0.26474977 0.10201145 0.12548815 0.21646121
0000e0 4b e3 39 3e d7 ef 26 3e 94 f3 86 3d cf 7f 09 3e
       0.18153112 0.16302429 0.065894276 0.13427661
0000f0 c4 65 e3 3c 35 e8 37 bc d8 45 45 3b c6 73 0a 3e
       0.027758487 -0.011224796 0.0030101445 0.13520727

features.conv4.weight f4 [128, 576]
000000 75 67 88 3c fd 36 8a 3c 64 2b a5 3c 7f 0b dc 3b
       0.016650895 0.016871924 0.020162292 0.0067152376
000010 00 1c 9a bb 6b d4 fa 3b 46 ff d8 3c f8 bc 06 3c
       -0.004703045 0.0076547167 0.026488911 0.008223765
000020 5d 77 4e 3c 3d 7d 81 3c 95 1a 8c 3c 13 49 96 3c
       0.012601701 0.015806789 0.017102519 0.018345391
000030 e9 fa 16 3b aa 66 0c 3b fb d1 e4 ba ed 29 f2 bb
       0.0023037738 0.0021423497 -0.0017457599 -0.007390252
000040 2f de 38 bb e8 ca 24 3c 37 a5 43 3c 9d 79 f5 bb
       -0.0028208604 0.010058142 0.011941246 -0.007491304
000050 f6 87 51 bb 58 c2 8a 3c 2d fa 18 3c f8 41 a9 3b
       -0.0031971908 0.016938373 0.00933699 0.005165335
000060 43 bd a8 3c 4a 66 89 3b 06 14 06 bc 8a 66 b0 3b
       0.02059806 0.004193102 -0.008183485 0.0053833174
000070 6c f8 3b ba 72 c2 47 3c 5f 6e 4d bc c7 40 aa bc
       -0.00071705016 0.0121923555 -0.012538522 -0.020782841
000080 fe 6d 19 3c ec e8 67 bc 3b 79 a8 bb eb 46 9c 3c
       0.009364603 -0.014154654 -0.005141405 0.019076785
000090 01 2f e5 bc ea 51 6a bc e4 53 95 bc 4e b4 43 bc
       -0.027976515 -0.014301756 -0.018228479 -0.011944843
0000a0 24 04 25 bc 44 1f 83 bc 8c aa 96 bc a6 0f ae bc
       -0.010071788 -0.01600612 -0.01839187 -0.021247696
0000b0 02 fd d3 bc 87 58 c8 bc 13 17 d0 3a 71 b0 de 3a
       -0.02587748 -0.024456276 0.0015876017 0.001698984
0000c0 7f 52 7d bb 88 e0 52 bb 44 4e 76 bc 98 1c ca bb
       -0.0038653908 -0.0032177288 -0.015033308 -0.0061679594
0000d0 48 5d a6 bb 0b 08 dd bc 06 a0 95 bb 31 8a 61 bc
       -0.005077038 -0.026981374 -0.0045661954 -0.013765858
0000e0 34 90 50 bb 30 0e 9d 3a 35 ca d2 3b 62 d7 e5 3a
       -0.0031824233 0.0011982378 0.0064327964 0.0017535503
0000f0 f4 2d b1 bc 58 ce 99 bc fc 52 a2 bc a0 91 4e 3c
       -0.021628357 -0.01877515 -0.01981496 0.012607962
000100 c6 5d 7e 3b 49 bb 9a bb 95 d6 14 b7 35 80 22 3c
       0.0038813218 -0.004722033 -8.871449e-06 0.009918262
000110 28 b7 1a 3c 45 45 b0 3c 9b bc fc 3b 1d 06 36 3d
       0.009443082 0.021517405 0.007712913 0.044439424
000120 84 5b 91 3b 58 ed 34 3c 02 73 ce bb aa 4f 06 3c
       0.0044359583 0.011042915 -0.006300331 0.008197704
000130 7f d4 5b 3b 09 7c 16 bb 94 09 02 bb db 4d 53 bb
       0.0033543406 -0.0022962114 -0.0019842135 -0.003224245
000140 bf 64 f3 b9 57 43 07 ba a2 e0 81 bc 6e a6 f9 bc
       -0.00046423633 -0.0005159876 -0.015854184 -0.030474868
000150 44 d4 08 3c 4a c9 20 bb fb 97 f9 bc 9f 1c 16 3c
       0.008351389 -0.002453404 -0.030467978 0.009162097
000160 03 cf 0b bc 18 97 20 bd bb 4d 76 3c e3 26 da 3c
       -0.008533242 -0.039206594 0.015033181 0.02662987
000170 1b 89 78 3c 6a cf c5 3b db 53 8c 3c 17 18 90 3c
       0.015169407 0.0060366886 0.01712983 0.017589612
000180 5f ba a0 bc f8 98 07 3c 7f df 71 3c 69 d4 52 3c
       -0.019620119 0.008276217 0.014762758 0.012868025
000190 18 57 a8 bc 97 a2 92 bc 1c bb ad 3c f8 39 9e bc
       -0.020549342 -0.017899795 0.021207385 -0.019314751
0001a0 c8 58 49 bc 71 d5 03 3d e6 a6 91 bc c5 b8 a0 bc
       -0.0122892335 0.032185975 -0.017779779 -0.019619355
0001b0 90 23 84 3c ca bc e1 3c 57 b2 f2 3c e6 ce 11 bb
       0.016130239 0.027555842 0.029626055 -0.0022248565
0001c0 92 d0 04 3b ac 28 8c 3b 01 aa 4d 3c 59 ea 73 bb
       0.002026592 0.0042773094 0.012552739 -0.003721854
0001d0 40 83 20 3b a3 f8 f1 3a b8 27 32 3a f1 ee d2 bb
       0.0024492294 0.001846094 0.00067960797 -0.0064371754
0001e0 e9 69 bd 3b 41 8c 14 3c c2 f1 47 bb df 29 b2 3a
       0.0057804477 0.009066642 -0.003050909 0.0013592801
0001f0 13 d8 36 ba 05 2a b3 bb a5 de 12 bb 93 a7 2e 3b
       -0.00069749466 -0.0054676556 -0.0022410539 0.0026650175
000200 dd a8 91 3c 06 ad 86 bb 5e a1 f9 bb 23 61 09 3b
       0.017780716 -0.0041099815 -0.0076181134 0.002096244
000210 e6 86 53 3c 82 78 28 bb fc f9 b4 bb 27 1f 42 bd
       0.01291058 -0.0025706594 -0.0055229645 -0.04739299
000220 33 20 c9 bc 03 74 6a bc 70 4a c1 bc e4 1d 6f 3a
       -0.024551487 -0.014309886 -0.023595065 0.00091215805
000230 5f a6 9a ba ec 1d 02 bd ff 77 ca bc 0f b5 85 bc
       -0.001179885 -0.031766817 -0.024715422 -0.016321687
000240 cc 7d 2b 3b 9f 41 2f 3c 68 f8 46 3b 1f e3 36 3c
       0.002616751 0.010696798 0.0030360464 0.011162548
000250 8f 6e e7 39 77 ad e7 bb d6 ea 1f 3c c5 15 88 3a
       0.00044142126 -0.007070239 0.009760579 0.0010382464
000260 d5 fc 0e bc 04 88 aa 3c 85 be a6 bb 8a b3 51 3b
       -0.008727272 0.02081681 -0.0050886297 0.0031997883
000270 23 11 84 3b c5 50 80 bc bd 15 84 3b 27 b8 0a bc
       0.004030363 -0.015663514 0.0040309117 -0.008466757
000280 02 71 92 bb 82 a7 23 3c a3 87 f8 bc f4 21 aa bc
       -0.004469038 0.009988667 -0.030338114 -0.020768143
000290 14 cc a8 bc f0 2a bf bc 0f 25 74 bc 0d 2f a5 bb
       -0.020605125 -0.023335904 -0.014901414 -0.0050410093
0002a0 c5 5d d8 bc 42 f7 cd bc d0 ab 66 bc 6f 26 8f 3c
       -0.0264119 -0.025142316 -0.014079049 0.017474381
0002b0 c8 ba 38 bc 90 7e 5c ba 67 0c 7e 3b 09 27 23 bb
       -0.011275001 -0.0008411193 0.0038764717 -0.0024895093
0002c0 84 8d a5 bc 5b 12 86 bb d8 2c 2d 3b e3 72 ec bc
       -0.020209081 -0.0040915436 0.0026424434 -0.028863376
0002d0 9b a0 d7 ba c3 c7 3e bc ec cd 3d bc 04 2d c6 bc
       -0.0016451062 -0.011644307 -0.01158474 -0.024191387
0002e0 8c 3f fd bb c7 f1 03 3b 8d 9e 38 bc d2 d1 9a bb
       -0.0077285226 0.0020133124 -0.01126827 -0.0047247196
0002f0 cc 72 47 bc 40 11 14 3c e2 89 0d 3b 3c d8 bb bb
       -0.012173366 0.009037316 0.0021597077 -0.0057325643
000300 26 07 57 3c c2 e3 cf ba 31 27 67 bc 9b b8 9d 3b
       0.013124263 -0.0015860724 -0.014108465 0.0048132665
000310 28 19 9f bb d0 77 8e bc 1b 87 3b bd b9 f6 5c bc
       -0.004855294 -0.017391115 -0.045783143 -0.013486558
000320 0e 48 11 3c 9c ae f7 bc af ce bc bc f9 e7 b8 bb
       0.008867277 -0.030234627 -0.023047773 -0.0056428877
000330 57 d4 5b bc a0 04 47 b9 a8 c1 0a 3b c3 68 d0 3c
       -0.013417325 -0.00018979842 0.0021172557 0.02544058
000340 f0 e6 b7 3b a4 76 46 3c 87 7d ef bb 88 2e 9f ba
       0.0056122467 0.012113247 -0.007308665 -0.0012144605
000350 59 43 b4 3b 8a a7 a2 bb dd 5d e1 bb 3b f2 13 b9
       0.0055011925 -0.00496382 -0.0068776445 -0.0001410925
000360 f3 9a 6f 3c 65 8f 92 bb ed fc e0 3c 6e 06 c2 bc
       0.014624345 -0.0044726604 0.027464354 -0.023684707
000370 43 f3 a9 bc fd 33 07 bc 56 9d 1f bc fb e4 11 bc
       -0.020745879 -0.008252141 -0.009742102 -0.008904691
000380 e7 56 ef bb bc fc 9f 3c 8d a2 f2 3b b7 5c 51 bb
       -0.0073040607 0.019529693 0.0074046315 -0.0031946131
000390 ec 65 1b bc 23 e0 98 bb 7e 41 b4 bc 86 5f 28 bc
       -0.009484749 -0.004665391 -0.022003885 -0.010276681
0003a0 be 36 80 bc 24 ba 9e bc ae e4 66 3c ce 1b 60 3b
       -0.015651103 -0.019375868 0.014092607 0.003419626
0003b0 b3 ec 07 3c d4 77 83 bc 8e 10 87 bc 83 80 b2 3b
       0.00829618 -0.01604835 -0.016487386 0.0054474487
0003c0 ad 54 5b bc 6b d0 ac bb 60 44 e9 3b 20 b6 ef 3b
       -0.0133868875 -0.005273869 0.0071187466 0.007315412
0003d0 d9 a0 38 3c 16 52 b6 3c c6 f8 15 3c 08 af 31 3c
       0.011268818 0.022255939 0.0091535505 0.010844953
0003e0 ca 1e 93 3c f7 f0 fc 3c 47 e0 93 3c c9 9f 3d 3d
       0.017959017 0.03087662 0.01805128 0.04629496
0003f0 04 1c 50 3b 31 92 be bb a9 2d 95 3a 22 8f ab 3b
       0.003175498 -0.005815767 0.0011381406 0.0052355686

features.conv4.bias f4 [128]
000000 4a 9e e6 3c 07 c2 3d 3e 30 2c e5 3d 08 57 8b 3d
       0.02815165 0.18531047 0.11190069 0.06803709
000010 3e 74 1b 3e de f3 71 3e 8d b9 1f 3e 18 68 89 3d
       0.15181062 0.23628184 0.15598126 0.067093074
000020 8d b1 cf 3d 1c 84 c7 3d b9 4d 26 3e 92 1f 0d 3e
       0.10141287 0.09741995 0.16240586 0.13781574
000030 87 09 d6 3d 4f 57 ab 3b e9 24 60 3d 0e 27 c4 3d
       0.10451036 0.005228914 0.0547227 0.095777616
000040 01 aa 41 3e 25 c6 a6 3d b8 94 f8 3c c6 67 8f 3e
       0.18912508 0.08143262 0.030344352 0.2800886
000050 09 b3 aa 3c 2f 0b 5b 3d 8e a3 fd 3d b4 3e 8b 3c
       0.020837324 0.053477462 0.12384711 0.016997673
000060 f8 bb 08 3e 3b d2 9e 3d f9 1c eb 3d 38 9f 14 3e
       0.13352954 0.07754942 0.114801355 0.14513862
000070 68 04 38 3d e2 1a 8d 3d 2b 63 cd 3c 00 13 c2 3b
       0.044926077 0.06889893 0.025071701 0.005922675
000080 8f b2 6b 3d c7 b1 60 3d 76 01 49 3e 77 25 6d bc
       0.057543334 0.05485704 0.19629464 -0.014474264
000090 45 df 44 3d 0e 15 6d 3d fe 33 b1 3d 75 7a e9 3d
       0.04806449 0.057881407 0.08652495 0.1140031
0000a0 50 20 39 3c b0 2c ac 3d 18 72 3f 3e a6 c2 bf 3d
       0.011299208 0.08406961 0.18695867 0.09363298
0000b0 e8 9c 82 3d af 61 8e 3d 35 e6 02 3e 29 a1 c6 3d
       0.06377584 0.069522254 0.1278313 0.096987076
0000c0 39 3d 72 3d 1e e2 08 3e 4e 56 11 3d 6b d1 80 3d
       0.059140418 0.13367507 0.035482697 0.06289943
0000d0 cc ab 3d 3d 83 ba 57 3d 30 4e e3 3d e0 25 35 3d
       0.046306416 0.052668106 0.110988975 0.044225574
0000e0 bb df 74 3d 10 53 11 3d 18 5b e5 3d c2 57 4f bd
       0.05978368 0.035479605 0.111990154 -0.0506208
0000f0 00 c4 8a 3d e4 c8 66 3d e4 e5 c3 3d 8f db e3 3d
       0.06775665 0.056343928 0.095653325 0.11125862
000100 cf 4d 94 3d 70 21 9e 3d 46 af 8f 3d 00 27 4c 3c
       0.07241403 0.077212214 0.07015853 0.01246047
000110 3e f1 a1 3d cd 7f b1 3d 32 1f 23 3e e8 57 45 3d
       0.079073414 0.08666954 0.15929869 0.048179537
000120 50 d0 5d 3d f4 9d ac 3d 18 23 34 3e e9 1a cf 3d
       0.05415374 0.08428565 0.17591512 0.101125546
000130 80 cf 3d bd 8c 81 c8 3d cd b4 ca bc 43 9d 69 3d
       -0.046340466 0.09790334 -0.024744416 0.057034742
000140 2b 2b 90 3d 51 73 5e 3d 60 98 8c 3c 7f 43 30 3d
       0.07039484 0.054309193 0.017162502 0.04303312
000150 8e da 85 bd 1e b2 08 3e 0c c9 68 3e 0f ef a8 3d
       -0.065358266 0.13349196 0.22732943 0.08248722
000160 10 68 d2 3d 5d 01 10 3e 44 6a 13 3d 33 17 86 3c
       0.102737546 0.1406302 0.035990015 0.016368484
000170 e9 cf 1e 3e fb e9 50 3d f4 f5 fd 3c 80 9d 58 3d
       0.15508999 0.05100439 0.031001069 0.05288458
000180 3f fb 02 3d 7f 12 98 3e fa 12 91 3c 87 1e 8d 3c
       0.03197789 0.2970161 0.017709244 0.01722647
000190 1d 2b 83 3d 7d b9 00 3d 39 54 0d 3e e5 85 c8 3c
       0.064047076 0.031426895 0.1380166 0.024477908
0001a0 57 c6 a3 3d 44 56 96 3d 94 71 bb 3d ed df 03 3e
       0.07996815 0.073406726 0.09152523 0.1287839
0001b0 38 d0 8f 3d a1 f0 92 3e be d8 0a 3e 43 ae 6a 3d
       0.070221364 0.2869921 0.13559243 0.057295095
0001c0 ac df b0 3c 68 47 77 3e 07 e0 10 3d 52 90 d4 3d
       0.02159103 0.24148333 0.0353699 0.103790894
0001d0 ad 48 8d 3d 55 21 0c 3d a5 70 04 3e 89 51 8a 3d
       0.068986274 0.034211475 0.12933595 0.06753833
0001e0 6f 42 cf 3d c1 61 d0 3d b9 40 78 3d e3 d9 8d 3d
       0.10120093 0.10174895 0.0606086 0.06926324
0001f0 8f 14 87 3e 47 59 2b 3e e3 7c e5 3d 8d 82 d6 3c
       0.26382872 0.16733275 0.11205461 0.026185298

features.prelu4.weight f4 [128]
000000 74 f8 8d bd 68 72 0f 3c 23 22 8d 3c e7 f4 d2 bd
       -0.06932154 0.008755304 0.017228192 -0.10300618
000010 8c 43 95 bd 96 e5 41 38 29 a7 a5 bd f4 bd 02 be
       -0.07288274 4.6228604e-05 -0.08088524 -0.12767774
000020 a0 2a 0b bd 75 21 9c bd 8c c2 fb be 73 aa 24 bc
       -0.033976197 -0.07623569 -0.49171865 -0.010050404
000030 cf ce 89 bd 09 ba 2a be 0c e7 db bc 8f ca 93 bd
       -0.06728899 -0.1667253 -0.02684357 -0.07216369
000040 75 a2 e2 bd c4 9b 03 bf d9 3b 8c bc 36 ca 5b bd
       -0.110661425 -0.51409554 -0.017118381 -0.05365964
000050 3f 68 56 bc ef 8f 98 bd fc 9d 04 be 3a f8 5f 3b
       -0.013086378 -0.07449328 -0.12950891 0.0034175054
000060 1e 29 3c bc f8 4c 56 bd d9 02 02 be 6f 3a 2d bc
       -0.0114844125 -0.052319497 -0.12696399 -0.010573014
000070 fa 39 fc bc 62 be 19 be 0a 8a 99 bc 52 77 c4 bc
       -0.030789364 -0.15014032 -0.01874258 -0.023982678
000080 ef 14 c8 bc 4d 4b e7 bd 26 19 ce bd 54 0a 7a bd
       -0.024424044 -0.11293659 -0.100633904 -0.061045006
000090 d7 af 2f bd 47 55 c8 bd 44 d8 a7 be 61 90 d4 bd
       -0.042892303 -0.0978189 -0.32782185 -0.103791006
0000a0 7f 3a bf 3b 4e 5b 9b bd 14 af 17 bf c5 87 1e bd
       0.0058358307 -0.07585774 -0.59251523 -0.0387037
0000b0 91 5f 17 be f9 0d 74 bd 8f 51 12 be 84 76 11 be
       -0.1478255 -0.059583638 -0.14288925 -0.14205366
0000c0 29 7b 8d bd 94 48 38 be e1 fd ad bc 5a 47 bd bd
       -0.069082566 -0.17996436 -0.021239223 -0.09242125
0000d0 71 d8 cf bd 72 61 da bc 7a d0 ed be 62 27 14 bd
       -0.10148705 -0.026657794 -0.46448117 -0.03617037
0000e0 c8 af 56 bd 6e cd a2 bc ac ee 16 be 92 db 0d bd
       -0.05241373 -0.019873347 -0.14739484 -0.034633227
0000f0 24 34 73 be 27 64 83 bd de 2a ff be fd 7a af be
       -0.23750359 -0.06415587 -0.49837393 -0.3427352
000100 02 d6 13 bd df 91 b2 bd ec 85 5e be cc a7 b0 bd
       -0.036092766 -0.08719229 -0.21730775 -0.08625755
000110 8b 3a 05 be 58 ec 33 bd 75 98 86 bd dd 3e f0 bd
       -0.13010614 -0.043926567 -0.065720476 -0.1173074
000120 9c 83 99 bd 58 5e b9 bd a5 4b 52 bc 57 95 97 bc
       -0.074958056 -0.09051198 -0.012835418 -0.018503828
000130 98 ae f5 bc 7c 9c 37 be 52 4a c1 bd bc fe a7 bd
       -0.02999048 -0.17930788 -0.094380036 -0.082028836
000140 d0 8b f1 ba 46 c3 81 bd 29 5d e3 bd 89 38 9e bd
       -0.0018428508 -0.063360736 -0.11101753 -0.07725627
000150 17 03 c2 be bf 29 80 be 88 00 15 bd df 27 71 bd
       -0.37892982 -0.2503185 -0.03637746 -0.058875915
000160 73 8b ee bd b9 a6 e1 be 79 31 bc be d8 99 0b bf
       -0.116476916 -0.44072512 -0.36756495 -0.5453162
000170 ec e5 2d be 13 2d 29 bc 7b b4 d7 bd ca ef 2b bd
       -0.1698224 -0.010325688 -0.10532471 -0.041976728
000180 63 7f 8e bd 49 f8 2a bf 45 3a 84 bd 41 ce aa bd
       -0.06957891 -0.66785103 -0.064564265 -0.08340121
000190 25 1b ae bd d6 21 8b bd e7 95 00 be 50 82 9e bc
       -0.08501271 -0.06793563 -0.12557183 -0.019349247
0001a0 e2 41 99 bd d9 eb 40 bd 04 fb 09 be ef 3b d5 bc
       -0.07483269 -0.04709992 -0.13474661 -0.026029555
0001b0 b3 d1 fc bd 36 ee 53 3d d4 14 16 be 7c fd 04 bf
       -0.123446845 0.051740848 -0.14656383 -0.51949286
0001c0 3b 88 1f be 03 4a c6 be df 2b 11 bd 64 dd ba be
       -0.15579312 -0.3872834 -0.03544223 -0.36497033
0001d0 8e 29 8f bd 87 63 ca be 7c 95 65 be 96 22 08 3d
       -0.06990348 -0.39529058 -0.22420305 0.03323611
0001e0 da 0f 60 bc a0 e3 61 bd 76 a1 e6 bc 2d d4 3b bd
       -0.013675654 -0.05514872 -0.028153162 -0.045856643
0001f0 87 14 44 bd 75 33 41 be 2e 47 be bb 1b 7d fd be
       -0.04787114 -0.18867286 -0.005806825 -0.4950951

conv5_1.weight f4 [2, 128]
000000 3c 1d 1d 3e ca 0d 38 bd 4d ea 76 bc e7 1f 18 be
       0.15343183 -0.044935025 -0.01507051 -0.1485592
000010 fb 43 8f 3c 11 de 62 bc 42 07 a7 3d 06 2b 56 3f
       0.01748847 -0.01384689 0.08155681 0.836594
000020 4f ca b5 bc cb bf f3 3e 16 3e 46 bf a0 6c 8d bc
       -0.022191195 0.47607264 -0.77438486 -0.01726371
000030 e5 98 bd 3d 49 9c a1 be ed 4e d0 3b 0b 30 47 3e
       0.09257678 -0.3156455 0.006357065 0.1945192
000040 65 89 76 3d f4 16 50 bf 29 f2 dd 3d 23 44 a8 3d
       0.060189623 -0.81285024 0.10837204 0.08216121
000050 32 a6 9b 3d e8 67 b9 3e 1d 73 84 3e 05 31 48 3d
       0.076000586 0.36212087 0.25869074 0.048874874
000060 08 8d e1 3e 86 11 60 be 56 44 02 3d d1 c8 74 3c
       0.4405291 -0.21881685 0.03180345 0.0149404565
000070 70 af e8 3b 9b d8 20 3f 8c 2b e1 3d c5 66 72 3d
       0.007100992 0.62830514 0.10994634 0.05918004
000080 fa 27 1d bd 08 ea 07 be 85 7b f4 3c 8a ba 4c be
       -0.038368203 -0.1327287 0.029844055 -0.19993034
000090 d2 bb 99 bd 2a e4 ff bd 87 93 13 3f 68 8a 56 be
       -0.07506527 -0.12494691 0.57646984 -0.20951235
0000a0 4a be 4c 3d c2 db 96 be a9 d7 5b bf af f2 7b 3d
       0.04998616 -0.29464537 -0.85875946 0.061510738
0000b0 af ea ff 3d 2f 4d 65 bd 38 4f e6 bd e2 ab b0 3e
       0.12495934 -0.05598181 -0.112455785 0.34506136
0000c0 c3 a7 11 3d c9 8f 9e be ef 52 1f bc 62 be a0 3d
       0.03556038 -0.30969074 -0.009724363 0.07848813
0000d0 16 be 02 bd 1b d7 05 be 34 9a 40 bf d0 78 86 3c
       -0.03191956 -0.13070337 -0.75235295 0.01641503
0000e0 12 93 3c 3e b8 07 45 bd bf 17 f1 3e f9 9d b8 bc
       0.18415478 -0.048103064 0.4708843 -0.022536265
0000f0 5b b6 f5 be b8 85 1d be 85 fe 48 bf fb 0b 1e bf
       -0.4799069 -0.15383041 -0.78513366 -0.6173703
000100 51 da 72 3d 6c 7f 30 3b 06 1d fc 3e 2e 5f 5f be
       0.059290234 0.0026931418 0.49240893 -0.21813652
000110 12 47 ef 3c 87 48 6b 3e 6a 55 93 3d bb c1 71 be
       0.029208694 0.22976886 0.07194026 -0.23609059
000120 30 22 58 3e e9 01 78 3d b9 8b 6c bb 4e 6a 96 3d
       0.21106791 0.060548697 -0.0036094023 0.07344495
000130 08 25 ed 3c c3 bc e2 3e f5 42 70 bd f3 10 fd 3d
       0.028948322 0.4428464 -0.058657605 0.123567484
000140 7e dc 08 bd c8 f5 ff 3d 56 62 8f bd 2a 67 06 3d
       -0.033413403 0.12498051 -0.07001178 0.03281323
000150 44 36 52 3f 64 79 11 3f a6 11 48 3d a6 f3 7d 3d
       0.8211405 0.5682585 0.048844956 0.06199994
000160 98 7c 65 bd 55 d3 40 bf 4d 14 2e 3f 1c 96 47 bf
       -0.056027025 -0.7532247 0.67999727 -0.77963424
000170 18 b1 9e 3d df 8c ce 3c df e9 70 3e b4 5d 98 bc
       0.07748622 0.025213657 0.23526715 -0.018599369
000180 fb 98 e3 bc 17 b8 62 3f 92 a2 87 3d 56 57 68 3d
       -0.027782908 0.8856215 0.06622805 0.056723915
000190 23 d7 ea 3d 6b 0f 0e bd 48 0d 80 3e 39 31 e9 3c
       0.11466815 -0.034682672 0.25010133 0.028465854
0001a0 c1 93 86 3d d8 6b 2b 3d 24 39 d6 bd 9a 55 48 3d
       0.065711506 0.041850895 -0.104601175 0.04890976
0001b0 2e 80 94 be 67 d9 f1 ba ae 3e 06 3d 1d d2 3b bf
       -0.29004043 -0.0018451632 0.03277462 -0.7336748
0001c0 d1 50 ce 3e 9f 67 2e bf be 53 53 bc 7d c2 13 bf
       0.40296033 -0.68126863 -0.012898384 -0.5771864
0001d0 68 0e 2b bb 94 c0 2e bf 60 65 f3 3e b6 e5 65 bb
       -0.0026101116 -0.682626 0.4753828 -0.0035079545
0001e0 50 64 f0 3c 7f 73 65 bb 86 c7 e1 3d 2d a7 ce bc
       0.029344708 -0.0035011468 0.11024384 -0.0252262
0001f0 9d ba 49 3d 3c e6 c3 be fb aa b5 bd a1 ca 3c bf
       0.049250234 -0.38261592 -0.088705026 -0.7374669
000200 e1 20 1e be bc 7a 38 3d f8 01 6d 3c 22 cb 18 3e
       -0.1544223 0.045038924 0.014465801 0.14921239
000210 e1 bb 98 bc 89 83 55 3c 94 0e a8 bd f7 2e 56 bf
       -0.018644275 0.013031849 -0.082059056 -0.8366541
000220 c7 25 ac 3c 22 fe f3 be 4a 55 46 3f c3 c8 83 3c
       0.021014107 -0.47654825 0.7747389 0.016086942
000230 d2 65 bf bd 75 a8 a1 3e 2b dd ab bb 60 cf 47 be
       -0.093455926 0.31573835 -0.005244871 -0.19512701
000240 4f 6e 70 bd 7e 16 50 3f 6e a9 e0 bd 95 b8 a6 bd
       -0.05869895 0.8128432 -0.10969816 -0.08140675
000250 51 b0 99 bd f1 e6 b8 be de a8 84 be d1 1c 46 bd
       -0.07504333 -0.36113694 -0.25910085 -0.048367325
000260 2a 05 e1 be 93 5b 61 3e 2e 4b 06 bd e6 f7 6e bc
       -0.43949252 0.22007589 -0.03278654 -0.014585471
000270 73 5f f7 bb ed df 20 bf 42 13 df bd f5 c1 74 bd
       -0.00754922 -0.62841684 -0.10892345 -0.059755284
000280 24 28 19 3d 1d ab 08 3e 8c 04 00 bd 6c 63 4b 3e
       0.037391797 0.13346525 -0.031254336 0.19862145
000290 9b 5f 9a 3d ee 10 00 3e 7c 7f 13 bf 2c 95 56 3e
       0.075377665 0.12506458 -0.576164 0.20955342
0002a0 12 1a 48 bd be 02 97 3e c7 ec 5b 3f 87 84 7d bd
       -0.048852988 0.2949428 0.8590817 -0.061893966
0002b0 3a 18 fd bd c4 d3 64 3d 61 2e e6 3d ef 2d b0 be
       -0.123581365 0.055866018 0.11239315 -0.34410045
0002c0 10 ab 10 bd 5c 69 9e 3e d3 6f 1a 3c 15 98 9f bd
       -0.035319388 0.30939758 0.009426075 -0.07792679
0002d0 a4 24 07 3d 97 60 06 3e e4 aa 40 3f c8 ab 87 bc
       0.032993928 0.13122784 0.7526076 -0.016561404
0002e0 c7 bf 3c be 22 59 44 3d 5e a8 f0 be df 6b b8 3c
       -0.18432532 0.047936566 -0.47003454 0.022512374
0002f0 27 4a f5 3e 2c b9 1d 3e 99 d1 48 3f 80 ca 1d 3f
       0.47908136 0.15402669 0.7844482 0.61637115
000300 fe 49 73 bd 3f ff 6a bb 39 8a fb be 11 d6 60 3e
       -0.059396736 -0.0035857705 -0.49128893 0.2195666
000310 ab 30 ec bc 2b 1b 6c be 9a 19 93 bd 13 b1 72 3e
       -0.0288318 -0.23057239 -0.071826175 0.23700361
000320 77 ff 57 be f4 2f 7c bd 1c d2 00 3b 3d 8a 93 bd
       -0.21093546 -0.06156917 0.0019656485 -0.07204101
000330 50 17 e8 bc 03 7c e2 be fe 5b 6c 3d fd 8b fc bd
       -0.028331429 -0.44235238 0.057704918 -0.12331388
000340 01 cc 0a 3d 46 e3 fe bd 0f 39 8f 3d 15 6e 05 bd
       0.03388596 -0.12445693 0.06993305 -0.032575686
000350 7a 34 52 bf e9 78 11 bf 9f 0b 46 bd 46 4d 7e bd
       -0.8211132 -0.5682512 -0.048350926 -0.062085412
000360 2b 4a 66 3d f4 bc 40 3f c0 db 2d bf c0 8a 47 3f
       0.056223076 0.7528832 -0.67913437 0.7794609
000370 7b 41 9f bd df 05 c8 bc e0 0a 72 be d3 ee 9c 3c
       -0.07776161 -0.024416862 -0.23636961 0.019156849
000380 24 0a ea 3c e0 9e 62 bf ce eb 85 bd 5b 32 63 bd
       0.028569289 -0.88523674 -0.06539117 -0.055467945
000390 47 91 ea bd 0c 02 0e 3d 77 34 80 be 38 4d ea bc
       -0.11453491 0.03466992 -0.25040027 -0.028601274
0003a0 5d e2 83 bd e6 00 2d bd ed 09 d5 3d 58 bb 4b bd
       -0.0643966 -0.042237185 0.10402284 -0.04973921
0003b0 16 85 94 3e 99 b6 01 3b 97 7d 05 bd 02 e9 3b 3f
       0.29007787 0.0019792675 -0.032590475 0.73402417
0003c0 29 a5 ce be 92 5a 2e 3f f9 7d 50 3c 6d b2 13 3f
       -0.40360382 0.6810695 0.012725347 0.5769413
0003d0 86 54 71 3b a4 c2 2e 3f 9e ed f3 be c0 f9 87 3b
       0.0036824062 0.6826575 -0.47642225 0.0041496456
0003e0 4c 5e f9 bc bb bc 72 3b e8 57 e5 bd f4 b4 d6 3c
       -0.030440472 0.0037038762 -0.111984074 0.026209332
0003f0 20 59 4f bd 74 d8 c3 3e 17 41 b4 3d f1 eb 3c 3f
       -0.050622106 0.38251078 0.088014774 0.7379752

conv5_1.bias f4 [2]
000000 d2 85 c1 bd d6 85 c1 3d
       -0.09449352 0.09449355
